init_weights/init_mlp_3_3_3_32_8.pt (torch, 25007 bytes, 17 tensors)

mlp_feat.0.weight f4 [32, 32]
000000 39 bc a2 be 1f 95 85 bd 50 46 5d 3e ed 35 ab 3e
       -0.31784227 -0.06522583 0.21608853 0.3343958
000010 c4 ef 82 be 22 ea b0 3d 6a 36 e6 bc ac c6 69 bd
       -0.25573552 0.08638407 -0.028102119 -0.057074234
000020 4f 6c 1e 3e b8 12 20 3e 7c 38 64 be f4 f4 0f 3d
       0.15471004 0.1563214 -0.22287172 0.035145715
000030 a6 1e b0 be 1c 55 4c 3e 5d 7e 2a 3e 4b f6 14 3e
       -0.34398383 0.19954342 0.16649766 0.14547078
000040 0e 6b 94 be 0b ba ac 3e 35 a5 c2 3d e5 75 55 be
       -0.28987926 0.3373569 0.09504167 -0.20845754
000050 c8 95 76 be a1 a2 73 be c1 c7 d7 3e 4d b6 23 be
       -0.24080575 -0.23792507 0.42144588 -0.15987511
000060 4d 36 da be 1f 8a 50 3e ea 1d dd 3e 0a 5a d5 3e
       -0.42619553 0.20365189 0.43186885 0.41670257
000070 1f 29 98 3e d4 7a 37 be 96 2b cf be 23 9a 34 3c
       0.29718873 -0.17917949 -0.4046294 0.011023077
000080 8a 29 1a be bf 5d 2d 3d dc 99 f7 3d 8d d0 d3 bd
       -0.15054908 0.04232573 0.12089893 -0.10342512
000090 0c 3f ba 3e 5e 3b 27 3e 49 87 5a 3e a7 58 5e 3e
       0.36376226 0.1633124 0.2134067 0.21713506
0000a0 88 99 f2 3d 5c 60 42 bd 45 57 af 3e 40 3b 2a be
       0.1184569 -0.047455177 0.3424627 -0.16624165
0000b0 34 56 c6 be 24 05 08 3e fb aa 89 be e6 ad 5e be
       -0.38737643 0.13283211 -0.2688826 -0.21746024
0000c0 bc 84 30 bd 73 4b d9 3e ee 8c aa 3e e6 88 a3 3e
       -0.043095335 0.42440376 0.33310646 0.31940383
0000d0 e8 bc 41 bd 29 fe 95 be 4f b4 b6 3e 24 6b 0d bd
       -0.047299296 -0.2929547 0.3568444 -0.034526005
0000e0 72 ea a7 be 22 37 72 bc 41 5c ba be 98 e9 c2 3e
       -0.32796055 -0.0147836525 -0.3639851 0.38068843
0000f0 0c a4 08 be 2e ee aa 3e 5d a3 bb 3e 6a e7 59 3e
       -0.13343829 0.33384842 0.36648074 0.21279684
000100 b2 f2 6f be be 13 bf 3e 09 c7 d0 be 6d 77 84 3e
       -0.23432425 0.3731975 -0.40776852 0.25872365
000110 9e 2a 30 bb db 65 95 3d a0 48 ce be 79 2a ca bd
       -0.002688087 0.07294818 -0.40289783 -0.09871382
000120 b2 a1 8d bd d8 2d b0 3e 89 41 12 3e 07 6c 1c be
       -0.069156066 0.34409976 0.14282812 -0.15275584
000130 7a d1 d0 3e 9b d3 3e 3e bb 45 a2 bd 84 e0 8b be
       0.40784818 0.18635409 -0.07923456 -0.2731973
000140 94 0c d9 3e 91 cd b7 3e a7 bd a8 3d a5 d8 aa 3e
       0.4239241 0.35899022 0.08239298 0.33368412
000150 17 f2 07 bc 1b 86 75 be cb d7 f1 bd d5 7a 13 3e
       -0.008297465 -0.23976938 -0.11808737 0.14402325
000160 3f df bc bc 3d 34 c6 3e c3 70 9e bc 25 96 bb be
       -0.02305567 0.3871173 -0.019340878 -0.3663799
000170 7e 1a b5 be d3 ad 54 3e 81 17 ba 3e 96 ee 72 be
       -0.35371774 0.20769434 0.36346057 -0.23723826
000180 ea 7a 92 3e 7f 7c 90 3e 7d 75 d3 3d 41 3f cd be
       0.286094 0.28219983 0.103251435 -0.4008732
000190 49 d9 ab 3e 07 37 15 be 9e 1c 90 3e 38 08 4b 3e
       0.33564213 -0.14571773 0.28146833 0.19827354
0001a0 47 86 9b 3e f4 8f b3 3d c3 39 67 3e 8f 19 81 be
       0.30375883 0.08767691 0.22580628 -0.25214812
0001b0 5c 44 96 bd a3 40 da be 16 eb 2a be d6 07 b9 be
       -0.07337257 -0.4262744 -0.1669124 -0.3613879
0001c0 80 c9 de bd 1f ae 09 3d d0 2e 27 3e 6f 57 d5 bc
       -0.10878277 0.03361332 0.16326451 -0.026042668
0001d0 d9 61 bc be 9f ff 84 3e 6f 0c ca 3d cd 4b 18 be
       -0.36793402 0.25976273 0.09865653 -0.14872666
0001e0 4c 53 7c be 54 ed f4 bd 27 1e 24 be 26 1d 1b 3e
       -0.2464115 -0.11959329 -0.16027127 0.15147838
0001f0 ca d0 7d be b8 86 bb 3d 85 b9 72 3e 7b 92 b0 be
       -0.24786678 0.09156555 0.23703583 -0.34486756
000200 ff a3 63 be 50 be b1 be 6c 12 ca 3e 78 d8 0d 3d
       -0.22230528 -0.3471551 0.3946718 0.03463027
000210 43 81 bb 3e 65 82 15 3e ff bb de bd 39 03 28 3d
       0.36622056 0.14600523 -0.10875701 0.0410187
000220 cd 4d 79 bd 7b b4 cf 3e 1a 7b 9c be 60 80 59 3d
       -0.060865212 0.40567383 -0.3056267 0.053100944
000230 7d 14 ad 3d ea ec 5c 3e d8 8e 70 be ae 95 0d bd
       0.084511735 0.2157475 -0.2349199 -0.034566574
000240 ce e1 c3 be 68 39 97 3c dd 87 89 be 82 50 82 be
       -0.38258213 0.01845999 -0.26861468 -0.25452048
000250 ac 74 ba be 37 27 a7 be 38 be a1 3e 3c 69 a6 3d
       -0.3641714 -0.32647106 0.31590438 0.081255406
000260 cb 4a c8 be 14 9a a7 be 95 78 6d be 38 33 1b 3e
       -0.39119563 -0.3273474 -0.2319053 0.15156257
000270 f0 5b 30 be b2 af 25 be 7a 77 bb be 53 db 58 be
       -0.17222571 -0.16180304 -0.3661459 -0.21177416
000280 b7 6b 8e 3d 6b c2 b4 3e e5 08 64 be 9c 45 db 3e
       0.06954139 0.3530458 -0.22269018 0.42826545
000290 27 d1 3d be 0b 62 47 3e e3 4a 62 3e 04 48 d5 3e
       -0.18536817 0.19470994 0.2209888 0.41656506
0002a0 74 b1 c9 bd 88 04 4a be ac ae ae 3e 9d 6a a4 3e
       -0.098482996 -0.19728291 0.3411764 0.3211259
0002b0 8f 3e 22 be 6e 69 d9 3d 27 84 72 3e 3f c5 e6 bd
       -0.15844177 0.10615812 0.23683225 -0.112680905
0002c0 e4 91 cb be 3a 1f 35 bd 53 3c c8 be c7 04 1d 3d
       -0.39759743 -0.044219233 -0.39108524 0.038334634
0002d0 72 b3 47 3e f0 ab 91 be af 9f 09 3e 95 ba bd 3e
       0.19502047 -0.2845149 0.1343982 0.37056413
0002e0 e9 b9 50 3c 4b 5d 81 be d6 45 a5 be 0a 0d b5 3e
       0.012739637 -0.2526649 -0.32279843 0.3536151
0002f0 a6 72 98 3d df 98 5e 3d 16 f5 b8 3d e1 51 ab bc
       0.074437425 0.054345008 0.090311214 -0.020913066
000300 e6 d1 a9 bd 98 bf 50 bd 4e 45 de bd 26 4e a9 be
       -0.08291988 -0.050963968 -0.108530626 -0.33067435
000310 8f 8c cb be 85 7b c1 3e c4 09 d5 3e 68 3c bf 3d
       -0.39755675 0.3778955 0.41609013 0.093376935
000320 10 e0 c0 3e 65 d7 b7 be 49 f6 39 be 7f 1a 56 be
       0.37670946 -0.3590652 -0.18160357 -0.20908545
000330 ef 7e cd be 84 6f 44 be 37 7f 70 3e eb 2f ba be
       -0.40135905 -0.19183165 0.23486029 -0.36364684
000340 d7 88 a1 3e c3 a4 a0 3e ff 68 1c 3e 68 94 ba bd
       0.31549713 0.31375703 0.15274428 -0.091103375
000350 d1 88 d5 be b7 c6 a8 3d 64 1c 8d be b4 04 47 bd
       -0.41705945 0.08241027 -0.27560723 -0.04858847
000360 b3 77 ff 3d c6 48 12 3e cf ce 16 be 00 4d d2 3e
       0.12474003 0.14285573 -0.14727329 0.4107437
000370 ae 6b 7c 3e bd a1 94 3d cd ec 37 3d 5c 56 a1 be
       0.24650452 0.07257412 0.044903565 -0.315112
000380 19 ba 99 3d bf d1 5a be 4c 64 d4 be 67 5f c0 bd
       0.075061984 -0.21369074 -0.4148277 -0.093931966
000390 7e 35 68 3e 98 ac 7d bd e8 6e 4d be 97 03 02 3c
       0.22676656 -0.061932176 -0.20061839 0.007935426
0003a0 2c fa cb 3e 0b 77 91 be 35 28 87 3d fc 55 42 3e
       0.39839303 -0.28411135 0.06599466 0.18978113
0003b0 70 b0 29 3e 53 49 73 bd 97 fd 12 3e 84 d5 e7 3d
       0.16571212 -0.0593961 0.1435455 0.11320022
0003c0 05 1e 49 be 87 37 c7 be 59 56 91 3e fd 13 66 3d
       -0.19640358 -0.38909552 0.2838619 0.056171406
0003d0 aa 4d c7 3d 47 8e 8e be 95 09 c9 be a1 41 0b be
       0.0973161 -0.27842924 -0.39265123 -0.13599254
0003e0 9c f6 d0 3d 82 e4 b4 3e cd db 82 be f0 8d cc be
       0.10203287 0.35330588 -0.2555832 -0.3995204
0003f0 e5 02 89 3e df 46 40 3e 72 c0 32 bc 95 70 92 bd
       0.2676002 0.18777035 -0.01091014 -0.071503796

mlp_feat.0.bias f4 [32]
000000 0a d7 23 3c 0a d7 23 3c 0a d7 23 3c 0a d7 23 3c
       0.01 0.01 0.01 0.01
000010 0a d7 23 3c 0a d7 23 3c 0a d7 23 3c 0a d7 23 3c
       0.01 0.01 0.01 0.01
000020 0a d7 23 3c 0a d7 23 3c 0a d7 23 3c 0a d7 23 3c
       0.01 0.01 0.01 0.01
000030 0a d7 23 3c 0a d7 23 3c 0a d7 23 3c 0a d7 23 3c
       0.01 0.01 0.01 0.01
000040 0a d7 23 3c 0a d7 23 3c 0a d7 23 3c 0a d7 23 3c
       0.01 0.01 0.01 0.01
000050 0a d7 23 3c 0a d7 23 3c 0a d7 23 3c 0a d7 23 3c
       0.01 0.01 0.01 0.01
000060 0a d7 23 3c 0a d7 23 3c 0a d7 23 3c 0a d7 23 3c
       0.01 0.01 0.01 0.01
000070 0a d7 23 3c 0a d7 23 3c 0a d7 23 3c 0a d7 23 3c
       0.01 0.01 0.01 0.01

mlp_feat.2.weight f4 [32, 32]
000000 28 31 9c 3e 76 62 be be 81 40 26 be 01 84 93 3e
       0.30506253 -0.37184495 -0.16235544 0.28811648
000010 64 e6 8f be af 0e 04 3e ee 2f a3 be e6 a2 80 be
       -0.28105462 0.12896226 -0.31872505 -0.25124282
000020 04 51 80 3e ba fe 99 3d f0 6a 7c be 29 f3 97 bd
       0.2506181 0.07519288 -0.24650168 -0.07419426
000030 95 be d4 be 1e 16 e9 bd 50 87 9e be 1d da 90 3d
       -0.41551653 -0.11381172 -0.3096261 0.07072852
000040 38 5c 54 be 83 e6 6c bd 2e 03 aa bc 15 0d 9c bd
       -0.20738304 -0.05783702 -0.02075347 -0.07619683
000050 a7 f2 ad 3e 04 87 4d bd 1e 60 22 3d 1f c7 77 3e
       0.33974192 -0.05017759 0.039642446 0.24197052
000060 e3 0b 99 3e 2d a4 94 be 37 fb 55 3c 2c 74 b8 3e
       0.2989188 -0.29031506 0.013060383 0.36026132
000070 3b 15 dc bc 4d fa c4 bd be c9 1e 3d f8 c1 d8 bd
       -0.026865592 -0.096180536 0.038766615 -0.105838716
000080 a3 e8 0a 3d 37 f1 6e 3e c3 01 f1 3c c0 ac 89 be
       0.033913266 0.23334204 0.029419785 -0.2688961
000090 ca 44 88 3e 7c bd c0 3e 4a 80 af bd 71 e9 34 3e
       0.26614982 0.37644565 -0.08569391 0.17667176
0000a0 5e 1b b7 bd 35 be 0f be ff b7 58 be 4f 25 78 bd
       -0.08940767 -0.14037402 -0.21163939 -0.060582455
0000b0 e9 cc 7e bd e7 82 8b be 8f 1e 76 be 58 35 44 bd
       -0.062207136 -0.27248308 -0.24035095 -0.047902435
0000c0 c8 78 cd 3d bf f7 50 be ea 97 a4 be 8d 35 97 3e
       0.10032803 -0.20407008 -0.3214715 0.29533044
0000d0 e7 48 0c 3e b5 8a 85 3e 55 a2 b9 be e5 0f 69 bd
       0.13699685 0.26082388 -0.36256662 -0.056899924
0000e0 2d 94 1c 3e 36 d8 a0 be e6 d9 30 be 62 c4 25 be
       0.152909 -0.31414956 -0.17270622 -0.16188195
0000f0 de bd da ba 54 f4 5e 3e 49 4b 28 3e 98 b3 a5 bc
       -0.0016688665 0.21772891 0.16434969 -0.020227239
000100 d5 98 86 3d 76 26 92 bd 3a f9 23 be 83 93 ce be
       0.06572119 -0.07136242 -0.16013041 -0.40346918
000110 7e cb 8f bd 51 7a d0 bd 8f 47 c4 3d aa ff ae 3d
       -0.07021235 -0.1017958 0.09583961 0.08544858
000120 ba 58 1d bc 75 d5 d3 3e f5 5f 59 be c0 bd d4 bd
       -0.009603674 0.41373792 -0.21228011 -0.103877544
000130 10 c9 3d 3e 89 a1 71 3d a7 28 00 3e 36 52 b5 3e
       0.1853373 0.058991943 0.12515508 0.35414284
000140 37 19 c1 be d7 90 6d 3e 25 f0 77 be b9 4f 83 3d
       -0.3771455 0.23199783 -0.24212702 0.0641169
000150 14 f3 0e 3e 25 40 64 bd 2f 64 08 bd ba 58 54 3c
       0.13959914 -0.055725235 -0.033298668 0.012960607
000160 53 89 75 be b0 1f b3 3e 7c 1c 31 3e 7b fb 3b 3e
       -0.23978166 0.34985113 0.17296022 0.18357651
000170 79 8e 1b 3e 21 7a ac bd de 5c 80 3e 03 6a 37 3e
       0.15191068 -0.08421732 0.25070852 0.17911534
000180 96 95 53 be 2e 25 03 be 72 ae 2b 3e 94 4a 15 be
       -0.20662531 -0.12807152 0.16765764 -0.1457923
000190 0f 83 3a 3d 6b 1d fa bb 41 08 ba 3e 48 5f d0 bd
       0.045535143 -0.0076329014 0.36334422 -0.101744235
0001a0 48 e5 31 3e 87 f9 ce be 7a 40 9d 3e 8c ed bf 3e
       0.1737262 -0.4042475 0.30713254 0.3748592
0001b0 7b 48 1c 3e 1d d2 80 bc 44 b1 d0 be 11 c9 9b 3e
       0.15262024 -0.01572519 -0.40760243 0.3042684
0001c0 54 b5 ee 3d 1f 0b c4 3e 82 93 b0 bc 29 7e b3 3e
       0.11655679 0.38289735 -0.021554712 0.3505719
0001d0 ea 67 c5 3e 58 88 a1 be d6 a4 0d 3c ed ec 3a be
       0.38555843 -0.31549335 0.008645257 -0.18254443
0001e0 b2 38 91 bd ea 8f 67 be 49 3e 8f be 2b 82 a9 3e
       -0.07090892 -0.22613493 -0.27977207 0.33107123
0001f0 a5 5e 27 be 62 7f b9 be 4a 7c 9e be 01 35 9e be
       -0.16344698 -0.36229998 -0.309542 -0.30899814
000200 5d 2f 1b be 2f 6d a4 be 48 20 bd be 21 9b ae bd
       -0.15154786 -0.3211455 -0.3693869 -0.08525682
000210 50 f0 34 be 84 4d 01 be 51 34 91 be 8b ef 9d be
       -0.17669797 -0.12627226 -0.28360227 -0.3084682
000220 0d 20 c9 bd a5 6a b7 be 28 07 bb be 85 87 6b be
       -0.09820566 -0.3582355 -0.36528897 -0.23000915
000230 77 c6 a1 be 77 8e a3 3e 08 c4 47 3d 0a e9 a8 3e
       -0.3159673 0.3194463 0.048770934 0.32990295
000240 13 66 a2 be eb bc 0a 3e 78 1b a9 3e 83 66 4f be
       -0.317185 0.13548629 0.3302877 -0.20253949
000250 a7 24 9b 3e 81 ae 25 be d0 f3 bd 3e f1 41 81 be
       0.303014 -0.16179849 0.37100077 -0.25245622
000260 ab 13 c0 be 33 00 fb bc e3 fa 25 3e 53 5d 14 bd
       -0.37515005 -0.030639743 0.16208987 -0.036221813
000270 ab b0 1e be db cd f9 bc c5 01 91 be a1 12 c4 be
       -0.15497081 -0.030493667 -0.28321663 -0.38295463
000280 68 2f 1e 3e 04 ac 01 3e 6f e7 53 be 3d fb b5 3b
       0.15447772 0.12663275 -0.20693754 0.0055536316
000290 ad 7e 33 be 94 fc c8 3e 39 75 a3 3e 2f 1c 45 3e
       -0.17528792 0.39255202 0.3192537 0.19249032
0002a0 32 82 97 be 6c 5b 64 bc ac c6 8d 3e 35 01 02 be
       -0.2959152 -0.013937812 0.27690637 -0.12695773
0002b0 fb f5 a9 be a7 c3 59 3d 56 27 d8 3d 4c 37 7b 3b
       -0.3319548 0.053165104 0.10554378 0.003833252
0002c0 de c6 a6 be bf ef 19 be 7a b7 ad be 8c 18 1f bd
       -0.325736 -0.15032862 -0.33929044 -0.03884177
0002d0 e3 c8 20 3d d8 2d da bd 21 c1 bf be 96 66 29 3e
       0.03925408 -0.10653275 -0.37452033 0.1654304
0002e0 eb ca ed bd 82 8c c8 be c9 51 0b 3e 94 99 c1 be
       -0.11610969 -0.391697 0.13605417 -0.37812483
0002f0 f7 d5 55 be 89 c9 dc 3e f6 46 9b be 3a 8c 91 3e
       -0.20882402 0.4312251 -0.30327576 0.28427297
000300 ec 15 d3 be ed 89 ef bc c1 c3 6c be 6d b6 06 be
       -0.41227663 -0.029240573 -0.23121549 -0.13155527
000310 78 47 70 3e 28 65 77 be 4a a2 0a be 42 65 90 3e
       0.23464763 -0.24159682 -0.13538471 0.28202254
000320 5d b9 34 bd a4 32 da be 80 a9 6e be 45 63 12 be
       -0.04412209 -0.4261676 -0.23306847 -0.14295681
000330 1b c6 ab be 38 c9 af be b9 eb 28 3e 86 91 be be
       -0.3354958 -0.34333205 0.16496171 -0.372204
000340 60 89 d2 3d 96 1f ed 3d f0 12 84 be a0 e6 82 3e
       0.102801085 0.1157829 -0.25795698 0.25566578
000350 2a 12 78 be 4a 9b 47 be c2 a6 04 3e e9 b5 85 be
       -0.24225679 -0.19492832 0.12954238 -0.2611535
000360 f8 68 67 bb 7b c9 a4 3d 3e e5 d4 3e 9a cd d4 3e
       -0.003531037 0.08046242 0.41581148 0.41563112
000370 00 28 1f 3e 29 0f 88 3e b8 6f 49 be 2c ef c5 be
       0.15542603 0.26574066 -0.19671524 -0.38659036
000380 e9 36 b7 3e 25 6c 76 3d 08 75 8b 3d 3d 89 5d 3e
       0.3578408 0.06016173 0.06809431 0.21634383
000390 63 26 c3 3e 1c 8c 3c 3e ce 8d 4a be 2e ed 17 3e
       0.38115224 0.18412822 -0.19780657 0.1483657
0003a0 3b 65 54 3e 9a 28 49 be f4 54 d6 3d c1 6d bb be
       0.20741741 -0.19644395 0.10465422 -0.36607173
0003b0 4f 4e 7d bd 7e 36 04 3e eb a3 7f 3e 5b 11 8e 3e
       -0.06184226 0.12911412 0.24964873 0.27747616
0003c0 08 61 63 be 75 3a d1 be fa c9 a1 3c 61 ed cc 3e
       -0.22204983 -0.40864912 0.01974963 0.40024856
0003d0 04 33 09 3e 01 d3 3f 3e e3 1b 4c be b4 7b af 3e
       0.13398367 0.18732835 -0.19932513 0.34274065
0003e0 4a 96 16 be be 62 af be 01 be 0b be 24 a0 61 3b
       -0.14705768 -0.34255022 -0.136467 0.0034427727
0003f0 a2 00 45 3d 7e ae 1a be cb d1 ad be ca 08 97 be
       0.048096307 -0.15105626 -0.33949122 -0.29498893

mlp_feat.2.bias f4 [32]
000000 0a d7 23 3c 0a d7 23 3c 0a d7 23 3c 0a d7 23 3c
       0.01 0.01 0.01 0.01
000010 0a d7 23 3c 0a d7 23 3c 0a d7 23 3c 0a d7 23 3c
       0.01 0.01 0.01 0.01
000020 0a d7 23 3c 0a d7 23 3c 0a d7 23 3c 0a d7 23 3c
       0.01 0.01 0.01 0.01
000030 0a d7 23 3c 0a d7 23 3c 0a d7 23 3c 0a d7 23 3c
       0.01 0.01 0.01 0.01
000040 0a d7 23 3c 0a d7 23 3c 0a d7 23 3c 0a d7 23 3c
       0.01 0.01 0.01 0.01
000050 0a d7 23 3c 0a d7 23 3c 0a d7 23 3c 0a d7 23 3c
       0.01 0.01 0.01 0.01
000060 0a d7 23 3c 0a d7 23 3c 0a d7 23 3c 0a d7 23 3c
       0.01 0.01 0.01 0.01
000070 0a d7 23 3c 0a d7 23 3c 0a d7 23 3c 0a d7 23 3c
       0.01 0.01 0.01 0.01

mlp_feat.4.weight f4 [32, 32]
000000 7e bb a9 bd 48 12 06 3d dd 73 1c 3e 7b d9 6e be
       -0.082877144 0.032732278 0.15278573 -0.2332515
000010 7b 30 b4 3e f1 99 6e 3e 69 83 d7 3e 10 0d 6f be
       0.35193238 0.23300911 0.42092445 -0.23344827
000020 df ed ab be 1c 35 c3 3e d0 d4 77 3e 1d b1 49 3e
       -0.3357992 0.38126457 0.24202275 0.1969647
000030 34 2f dc be aa 3b d4 be 28 c4 ee 3c 0c 9d 44 bd
       -0.43004763 -0.4145177 0.029146269 -0.048001334
000040 6b d2 3c bd 09 4b ab 3e 4e 34 da be 09 3d 83 3e
       -0.046099108 0.33455685 -0.4261803 0.25632504
000050 c4 41 a4 3e 64 a9 e9 3c 60 25 34 3e 50 6e 7b be
       0.32081425 0.028523155 0.17592382 -0.245538
000060 e9 e5 97 be 63 79 8e 3e a5 96 ab be 83 e0 cd be
       -0.29667595 0.27826986 -0.3351337 -0.4021035
000070 3a 8a ba be f9 47 af 3d f7 4b b7 be 1e 85 1f 3d
       -0.36433583 0.085586496 -0.35800144 0.03894531
000080 a4 99 cd be d2 ce 33 be 80 b8 6f 3e 22 73 9b 3e
       -0.4015628 -0.17559364 0.23410225 0.30361277
000090 1a dd bd 3e de b7 c6 3e b5 01 1f 3c 8b 14 ad bd
       0.3708275 0.38812155 0.009704997 -0.08451184
0000a0 22 d1 11 bd 21 04 02 bd a4 c3 94 3e cd a5 42 be
       -0.035599835 -0.03174222 0.29055512 -0.1900856
0000b0 f7 20 cd 3e a9 b0 6a be dd c4 d3 3e 3b c0 d1 be
       0.40064213 -0.22918953 0.41361132 -0.40966973
0000c0 4c 40 a3 3a c3 77 98 bd 30 b0 d0 be dc 8c 4a 3e
       0.0012455075 -0.07444718 -0.4075942 0.19780296
0000d0 34 70 ff 3d 47 26 6e 3d 54 d6 a2 be ce fe d6 3e
       0.12472573 0.058141973 -0.31804144 0.41991276
0000e0 75 35 2e be 75 90 73 3e ec 52 68 3e 63 ca f8 3c
       -0.1701258 0.23785575 0.22687882 0.030369943
0000f0 f0 36 3f 3c a2 5b 21 be 84 e4 92 3d 79 36 8c bd
       0.011670813 -0.15757611 0.07172492 -0.06846327
000100 d9 e7 c2 3e 26 d2 2a 3c b3 0d 6d be 08 4c b2 be
       0.3806751 0.01042608 -0.23149757 -0.34823632
000110 22 91 f5 3d 08 9d ab bd 5c f5 a4 be 6b 9b ca be
       0.119905725 -0.08379561 -0.32218444 -0.395717
000120 51 69 7d be 4a 53 99 bd 52 68 c8 3e 56 e3 94 3a
       -0.24747206 -0.07486589 0.3914209 0.0011359255
000130 d7 b5 60 be f8 ed d3 be e5 14 da bc cf 95 0e 3e
       -0.21944366 -0.41392493 -0.026621291 0.13924335
000140 d9 2d 22 3e 13 1f d9 3e 06 97 83 3e f0 71 da be
       0.15837802 0.4240652 0.2570116 -0.42665052
000150 1d 36 5f be 02 3f d2 3e 09 13 4e 3e 0d cb 83 be
       -0.21797986 0.41063696 0.20124449 -0.25740853
000160 ce 38 31 3e c0 f7 21 be 82 89 27 3e df 95 9d be
       0.17306826 -0.15817165 0.16361049 -0.30778405
000170 18 08 68 bd 26 9f 50 3e 62 b2 be be 80 dc 28 be
       -0.056648344 0.2037321 -0.3724547 -0.16490364
000180 e5 67 26 be 60 2b 39 be 5c b6 1d 3e 60 21 8f 3e
       -0.1625057 -0.18082952 0.15401596 0.2795515
000190 ec 76 3a 3e 23 41 b1 3d 4f b6 b9 3c 27 a1 13 3e
       0.18209428 0.08655002 0.02266994 0.14416943
0001a0 cc d8 9c be 51 10 88 bd 69 b7 aa 3e fe d9 17 3e
       -0.30634153 -0.06643737 0.33343056 0.14829251
0001b0 96 7d 6f bd b2 b8 c7 be 34 4a 9a 3e d0 d4 b2 3e
       -0.058469377 -0.390081 0.30134737 0.34927988
0001c0 e1 d9 93 3e 5d f7 91 3e 49 bc 7a 3e 1e 75 00 3e
       0.28877166 0.28509036 0.24485888 0.12544677
0001d0 69 3c 8c 3e 25 af ec bd 90 b5 44 be 9d df 3a 3e
       0.2738984 -0.11556844 -0.19209886 0.18249364
0001e0 00 f3 94 be 94 31 c3 bd fc e8 9f 3e a0 18 92 be
       -0.29091644 -0.09530941 0.3123244 -0.28534412
0001f0 8a 31 0f be 79 49 92 be 48 4e 83 be f9 a7 da 3d
       -0.13983741 -0.2857168 -0.2564566 0.106765695
000200 dd 8a d9 3e f6 5a 4b 3e cc 47 b1 be 3f d1 be be
       0.42488757 0.19858918 -0.3462509 -0.37269017
000210 1a e6 6b be da fd b5 3e e6 69 5f bd 7c e1 ff bd
       -0.23036996 0.35545236 -0.054544352 -0.124941796
000220 38 7e 68 3e e1 4b 45 3e 34 e5 26 be 6d 09 a7 3e
       0.22704399 0.19267227 -0.16298372 0.3262438
000230 42 c8 5a be 37 3b e8 3d 48 c2 bc be 1c d5 72 be
       -0.21365455 0.11339419 -0.36866975 -0.23714107
000240 2a 9b 83 3e 95 30 88 be 9c 85 99 3e 08 5a 9e 3e
       0.25704318 -0.26599565 0.29984748 0.30928063
000250 ef e6 ae be 91 75 c6 3e 3c fb c2 3d fc 42 8e 3d
       -0.34160563 0.3876157 0.095205754 0.0694637
000260 8e 2b 57 3e f6 f1 88 3e ab 75 92 bc 4f d3 af 3e
       0.21012709 0.26747102 -0.017878374 0.34340903
000270 9f e7 9b be 40 35 80 be ff 97 58 3e d2 75 cb 3d
       -0.3045015 -0.25040627 0.21151732 0.09934582
000280 36 19 cd 3e 97 01 9f be 7d 50 cd 3d f0 35 4d ba
       0.40058297 -0.310559 0.100251175 -0.00078281667
000290 d6 4a 79 be 12 0b 0d bd 37 a9 d9 3d 5f 64 99 be
       -0.24344954 -0.034434386 0.10627978 -0.2995939
0002a0 d4 ef 74 3e a1 79 41 3c 58 56 38 bd 1a 56 cc 3e
       0.23919612 0.011808784 -0.04500422 0.3990944
0002b0 b3 b9 89 be 74 65 f0 bd d8 96 aa 3e bb f3 e9 3d
       -0.2689949 -0.11738101 0.3331821 0.11423441
0002c0 d8 2b c6 3e 41 3c c2 be 64 19 d5 3e da 3f cb be
       0.38705325 -0.37936595 0.41620934 -0.39697152
0002d0 08 24 89 be 8c fd c4 bd 01 66 2e 3e d8 f1 8a 3e
       -0.26785302 -0.09618673 0.17031099 0.27137637
0002e0 af 18 78 3e 81 c8 bf 3e b4 61 0e be 5c 5e 72 3e
       0.24228166 0.3745766 -0.13904458 0.23668808
0002f0 b1 2a 96 3e 77 f3 26 bd 26 bb 8b 3d 07 c6 28 3e
       0.29329446 -0.04075953 0.06822805 0.16481791
000300 11 89 03 bc 86 88 50 3e be 79 d6 3e d7 48 7c bd
       -0.008028285 0.2036458 0.41889757 -0.061592903
000310 73 b7 0c bd cf b0 3a be 24 90 1e be d6 fb 92 3e
       -0.03435464 -0.1823151 -0.15484673 0.2870776
000320 ee 6b a9 bd c5 ba b9 be 97 c0 56 3e 3d e7 c2 bd
       -0.08272539 -0.36275306 0.20971905 -0.095167615
000330 37 f9 1f 3e cd e2 b9 bd 3d 44 b7 be 61 e9 9b 3e
       0.15622412 -0.09076462 -0.3579425 0.3045149
000340 ea 98 6a 3e 68 33 af be 11 b3 5e bb 21 be cb 3d
       0.22909895 -0.34218907 -0.0033981244 0.099483736
000350 36 48 77 3e 33 06 78 3e 0f a2 93 3c 13 76 bf be
       0.2414864 0.24221115 0.018021611 -0.3739477
000360 10 3c c3 be e1 15 98 bd cd 38 f9 bb 19 41 96 3e
       -0.38131762 -0.07426048 -0.007605648 0.2934654
000370 b2 8f 95 3e 05 11 1c 3e fc 56 5b bd dd ae a5 be
       0.29211193 0.15240867 -0.05354975 -0.32359973
000380 ed 1c 01 3e 8e c8 63 be 73 f6 0e be a7 12 89 3d
       0.1260869 -0.22244474 -0.139612 0.06693011
000390 cf 29 d3 be aa 8a 88 bd 21 81 1d be 0d 06 d0 be
       -0.41242835 -0.06667073 -0.1538129 -0.40629616
0003a0 94 2a 81 3d b0 cf 96 be 22 47 5c 3d c4 35 72 3e
       0.06306949 -0.29455328 0.053778775 0.23653322
0003b0 bf 31 cc 3e 53 31 9d 3d 54 57 06 3e c7 0c c6 be
       0.39881703 0.076754235 0.1311925 -0.38681623
0003c0 a3 6c 8a bc 72 f0 da be 5c a6 a6 3e 31 1b db be
       -0.016897505 -0.4276157 0.32548797 -0.42794183
0003d0 dd 15 99 be 3c 7e ce 3e 4c a7 7e 3e 5a 2a 87 be
       -0.29899493 0.40330684 0.24868506 -0.263995
0003e0 48 df 54 bd 76 39 8e bc a2 a1 ca 3e cc 87 88 bc
       -0.05197075 -0.017361384 0.3957644 -0.016666315
0003f0 5a 5b 61 be 2b 13 72 3e cc 56 da 3e 80 1a c0 be
       -0.22007504 0.23640124 0.42644346 -0.37520218

mlp_feat.4.bias f4 [32]
000000 0a d7 23 3c 0a d7 23 3c 0a d7 23 3c 0a d7 23 3c
       0.01 0.01 0.01 0.01
000010 0a d7 23 3c 0a d7 23 3c 0a d7 23 3c 0a d7 23 3c
       0.01 0.01 0.01 0.01
000020 0a d7 23 3c 0a d7 23 3c 0a d7 23 3c 0a d7 23 3c
       0.01 0.01 0.01 0.01
000030 0a d7 23 3c 0a d7 23 3c 0a d7 23 3c 0a d7 23 3c
       0.01 0.01 0.01 0.01
000040 0a d7 23 3c 0a d7 23 3c 0a d7 23 3c 0a d7 23 3c
       0.01 0.01 0.01 0.01
000050 0a d7 23 3c 0a d7 23 3c 0a d7 23 3c 0a d7 23 3c
       0.01 0.01 0.01 0.01
000060 0a d7 23 3c 0a d7 23 3c 0a d7 23 3c 0a d7 23 3c
       0.01 0.01 0.01 0.01
000070 0a d7 23 3c 0a d7 23 3c 0a d7 23 3c 0a d7 23 3c
       0.01 0.01 0.01 0.01

alpha_branch.0.weight f4 [16, 32]
000000 2d 75 89 3e f4 7d b4 be 5a 22 19 be b1 5e d0 3e
       0.2684721 -0.35252345 -0.1495451 0.40697244
000010 b0 ee da be 59 40 e0 be 4d d6 20 3e 45 20 2e 3d
       -0.4276023 -0.43799093 0.1570675 0.042511243
000020 57 6b d6 be e8 a9 f1 bb fe 88 a3 be a6 8f 95 be
       -0.4187877 -0.0073749907 -0.31940454 -0.29211158
000030 dd d6 68 be 89 1f c9 be 2d ab a2 3e 78 7a 92 be
       -0.22738214 -0.39281872 0.31771222 -0.2860906
000040 23 c3 eb be ad cf 05 3e 5d 27 5f 3e 5a a9 5d bd
       -0.46047315 0.13067503 0.2179236 -0.054116584
000050 52 d4 d3 3e 62 92 16 bd 8d 6d 91 be 4b 49 ff bd
       0.41372925 -0.036760695 -0.28403893 -0.124651514
000060 02 da c8 3e da 37 b7 be 06 f3 d1 3e 8a 2f 9e bd
       0.39228827 -0.357848 0.41005725 -0.07723911
000070 11 39 bf be f8 39 d9 3e c4 75 2e bc d3 73 e7 be
       -0.37348226 0.4242704 -0.010648195 -0.45205554
000080 3f 1d 4c be 8a 5b 87 3e bc 08 d3 bd 64 47 01 3e
       -0.19933031 0.26437026 -0.103044 0.1262489
000090 f4 73 bb be ff c9 84 be e7 14 15 be 1c 95 76 be
       -0.36611903 -0.2593536 -0.14558755 -0.24080318
0000a0 90 d3 fd 3e d1 36 be 3c 39 e0 a8 3e 7c db 8e be
       0.49575472 0.023219498 0.32983568 -0.27901828
0000b0 f1 e4 c1 3e 43 7a cd 3e fc 1d aa be 84 66 44 3e
       0.3786998 0.4013234 -0.33226 0.19179732
0000c0 02 0b 0d 3d 7b 5c b1 3d ab e1 3f 3e 00 74 dd be
       0.034434326 0.086602174 0.18738429 -0.43252563
0000d0 55 89 d0 bc 2a c1 63 be 85 f3 6e be 2c c2 4b 3e
       -0.02545611 -0.22241655 -0.23335083 0.1989829
0000e0 8b 7d 80 3e 79 b9 f6 3e 0f ee 99 bd 2a 2a 35 3e
       0.25095782 0.4818838 -0.07516109 0.17691866
0000f0 66 6c c7 3e df cd d8 3e 86 f1 d9 3d 37 50 68 3d
       0.3894989 0.42344567 0.1064177 0.056717124
000100 8c 1f e1 be ec 2d 37 be 59 d6 62 3d f1 5c d6 bd
       -0.4396938 -0.17888612 0.0553802 -0.10466946
000110 18 fd 57 3e f5 82 46 bc 6e 3b 56 3e b1 dd a6 be
       0.21092641 -0.0121161835 0.20921108 -0.32591012
000120 3f 8d de be e3 a3 38 bc ee d7 6f be e8 dd 8e 3e
       -0.43467137 -0.011269542 -0.23422214 0.27903676
000130 ec 22 e4 3e db 6e 91 3d 71 97 19 be c6 07 1e be
       0.44557893 0.07101222 -0.14999177 -0.15432653
000140 47 6c 9e 3e 48 b5 db 3e 66 1f 72 bc 71 f8 26 3e
       0.30941984 0.42911744 -0.014777994 0.1630571
000150 3e ad d5 be e0 91 a8 3e 8b bb 44 3d 2c 1d fa 3d
       -0.41733736 0.32923794 0.048030417 0.12212595
000160 d1 e1 f4 3e 5d 73 d9 be 43 9a 32 3e 70 85 60 3d
       0.47828534 -0.42470828 0.17441659 0.054814756
000170 19 50 8d be 10 fb 14 be 61 96 6c 3e 89 ed 5d bd
       -0.27600172 -0.14548898 0.2310424 -0.05418161
000180 b7 1e cc 3e ce 25 93 be b0 51 ea 3e fe 1f 08 be
       0.39867184 -0.2873978 0.45765448 -0.13293454
000190 e0 ed d1 3e f4 f5 36 be 53 29 87 be 7a c1 b2 be
       0.41001797 -0.17867261 -0.26398715 -0.34913236
0001a0 50 81 28 be 06 72 c6 bd 0e 90 79 3c da 16 40 bd
       -0.16455579 -0.09689717 0.015232099 -0.046896793
0001b0 fd 0b 4e be 1d 1e a8 be 14 29 21 3e dd d3 92 3e
       -0.2012176 -0.32835475 0.15738326 0.28677264
0001c0 21 95 ea 3e 07 49 15 3d c9 f8 a7 3e e8 50 84 be
       0.458169 0.036446597 0.32806996 -0.25842977
0001d0 f7 d0 1d 3e 0c 28 c2 3d d8 f7 9d be a1 f2 a9 be
       0.15411745 0.094802946 -0.30853152 -0.33192924
0001e0 05 9e 0f be 05 c7 c6 3e 0a 0f a1 be 43 0f b6 3e
       -0.14025123 0.38823715 -0.31456786 0.3555852
0001f0 d4 8a 84 3e 93 63 c0 be 15 1f ae bd 91 86 40 3e
       0.25887167 -0.3757597 -0.08502022 0.18801333
000200 da fe aa 3e ab 33 d2 3e 59 d3 7e 3e 54 48 0c 3e
       0.3339756 0.41055045 0.2488531 0.13699466
000210 cd 36 b9 3e f9 b7 04 3e 0f 18 ad 3e 05 9d 03 be
       0.36174622 0.12960805 0.33807418 -0.12852867
000220 42 78 0f be 75 fd 32 3e be 45 4b be 15 8e bb be
       -0.14010718 0.17479499 -0.19850823 -0.36631837
000230 86 35 2a 3e 20 7c eb be c3 61 98 3e 16 bc c0 3e
       0.1662198 -0.45993137 0.29762086 0.37643498
000240 9e cc 2d 3e ef f4 98 be d2 eb 38 bd a6 84 6e be
       0.16972587 -0.2987437 -0.04514677 -0.23292789
000250 e6 90 db 3e dc 79 9d 3d 35 4f 93 be ff b4 38 be
       0.42883986 0.076892585 -0.28771368 -0.18037795
000260 21 40 2e be 8c 8b db be 69 a6 e7 3d 59 09 07 be
       -0.1701665 -0.42879903 0.11311037 -0.1318716
000270 b3 ab 95 be e5 2b a8 3e 48 74 fb 3d e2 36 bb 3d
       -0.2923256 0.3284599 0.12278038 0.091413274
000280 57 d0 81 3a 47 44 a0 3e b0 3d 64 be a9 9e c1 3e
       0.0009904009 0.3130209 -0.22289157 0.3781636
000290 3d 76 89 ba e0 81 65 be 82 64 d1 bd b4 65 97 be
       -0.0010487508 -0.22412825 -0.102242485 -0.2956978
0002a0 f5 2a f3 be 6c aa e0 3e dd cc d4 be 38 6a be be
       -0.4749371 0.43880022 -0.41562548 -0.37190413
0002b0 6d 19 9a 3e 8c 2b 96 bd a1 28 97 be c1 09 1c bc
       0.30097523 -0.07332525 -0.29523185 -0.00952381
0002c0 86 14 77 be 6c 41 f5 3d 43 5a 6e 3d 94 91 cc be
       -0.24128923 0.11975369 0.05819155 -0.39954817
0002d0 72 fe e5 be 1a f5 c3 3e 55 19 ed be 58 81 34 3e
       -0.4492069 0.38272935 -0.4630839 0.17627466
0002e0 50 23 1c bd 3c 2c 22 be 7d ad 0f 3e 9b 88 4e 3c
       -0.038119614 -0.15837187 0.14031024 0.0126058115
0002f0 62 f9 9c be ec e0 e2 be 5a e1 f7 3e 2e ba d9 3d
       -0.30659014 -0.44312227 0.48414117 0.10631214
000300 c0 15 b2 3e 48 fc dd bc 57 20 8d 3e 98 7b 8d 3d
       0.3478222 -0.027097836 0.27563736 0.06908339
000310 df 88 22 3e d5 c5 e8 be 0b 4a b1 be 4f f0 02 be
       0.15872525 -0.45463434 -0.34626803 -0.12786983
000320 87 d0 2e be 49 b6 68 be 9b bd 82 be 68 3b c3 bd
       -0.17071734 -0.22725786 -0.25535282 -0.09532815
000330 45 9b 72 bd e9 59 45 3e 21 8c 8c be d2 cc 83 be
       -0.059230108 0.19272579 -0.2745066 -0.25742203
000340 d7 95 8b 3e 79 e5 b9 be 7d b2 ab 3d e7 de f1 3e
       0.27262756 -0.36307886 0.08383653 0.47240373
000350 37 9c 2d be 65 35 29 be 7a 06 db 3d 0e 6e 41 be
       -0.16954122 -0.16524275 0.10694595 -0.18889639
000360 f4 a1 d8 be 11 9d e7 3e ed 28 c4 bd 85 e1 cf 3e
       -0.4231106 0.4523702 -0.095781185 0.40601745
000370 53 e3 96 be 67 aa 1d be 5f bf 60 be 18 f7 a2 be
       -0.2947031 -0.15397035 -0.21948002 -0.31829143
000380 a5 ca fb be b1 89 50 be a7 d9 e3 3e 39 93 d1 be
       -0.49178043 -0.20365025 0.44501993 -0.40932634
000390 d8 cc 7d 3e 07 68 a7 3e f5 66 c0 be c2 9c 93 3e
       0.24785173 0.32696554 -0.3757855 0.28830534
0003a0 75 85 d1 be 55 33 f9 be d0 d9 61 be a4 18 80 bd
       -0.40922132 -0.48671976 -0.22055745 -0.062547
0003b0 34 a7 bd be 96 db ad bd a1 10 d9 3d 2a ce 48 be
       -0.37041628 -0.08489148 0.10598875 -0.19609895
0003c0 90 7c df 3e a3 a0 8e 3e ac 66 8a be f4 96 a9 bd
       0.4364972 0.2785693 -0.27031457 -0.08280745
0003d0 07 bc ea be f3 40 2b be f9 0e 65 be f6 49 f7 bc
       -0.45846578 -0.16723995 -0.22368993 -0.030186635
0003e0 e8 3d 97 3e e0 0e e1 3e c1 6d 82 be 4c eb be be
       0.29539418 0.4395666 -0.2547436 -0.37288892
0003f0 60 80 7b be 3e 44 91 be 42 24 9f be 3d 51 6b 3c
       -0.2456069 -0.28372377 -0.3108235 0.01436263

alpha_branch.0.bias f4 [16]
000000 0a d7 23 3c 0a d7 23 3c 0a d7 23 3c 0a d7 23 3c
       0.01 0.01 0.01 0.01
000010 0a d7 23 3c 0a d7 23 3c 0a d7 23 3c 0a d7 23 3c
       0.01 0.01 0.01 0.01
000020 0a d7 23 3c 0a d7 23 3c 0a d7 23 3c 0a d7 23 3c
       0.01 0.01 0.01 0.01
000030 0a d7 23 3c 0a d7 23 3c 0a d7 23 3c 0a d7 23 3c
       0.01 0.01 0.01 0.01

alpha_branch.2.weight f4 [16, 16]
000000 98 bf 47 3e 9d 46 a0 3e 49 a6 b0 3d 96 47 07 3e
       0.19506681 0.31303874 0.086254664 0.13210902
000010 21 6e 35 3d c3 c2 07 3f 29 a8 b0 3d a7 56 ac 3d
       0.04429448 0.5303156 0.08625824 0.08414965
000020 bc 84 c7 3e 58 6d 07 bf 98 1b 2f 3e c9 8f 87 bd
       0.38968456 -0.5290122 0.1710037 -0.06619222
000030 fd 2d a0 3e cd 44 db bd c9 1d b8 3e 7a b0 0c bf
       0.31285086 -0.10706482 0.35960224 -0.5495678
000040 eb cf 0a bf 67 6d b4 bd ae d5 e4 be 29 1d 1a bf
       -0.5422351 -0.08809929 -0.44694275 -0.60200745
000050 ec b6 9d be 68 62 e4 be 74 c5 e0 bc 10 30 08 be
       -0.3080362 -0.44606328 -0.027437903 -0.13299584
000060 ce 92 0e be 3f 90 a1 3d 6f 47 b5 bd 21 d2 d7 3e
       -0.13923189 0.07888841 -0.088515155 0.42152503
000070 79 61 59 be 67 b5 fd 3e 67 82 13 3f 8f 5d 9c be
       -0.21228589 0.49552462 0.57620853 -0.3054013
000080 7b 20 c1 be 29 f3 4f 3e 3e 95 99 bb d2 0a 7c 3e
       -0.37720093 0.20307602 -0.0046869805 0.24613503
000090 f3 1e dc be 35 dc 52 be 36 f0 50 be 55 e7 d4 be
       -0.42992362 -0.20591815 -0.20404133 -0.41582742
0000a0 fe 58 9d 3d 5d 25 80 be 3d 76 14 3e 54 34 83 bc
       0.076829895 -0.25028506 0.1449823 -0.016016163
0000b0 0d 88 e2 be 46 24 38 3e 1e af a6 be 36 a8 03 bf
       -0.44244424 0.17982587 -0.3255548 -0.51428545
0000c0 fe 00 ad be fd 0e fa be b5 94 9c be 7b 4f 39 be
       -0.3378982 -0.4883956 -0.30582204 -0.18096726
0000d0 e8 8a 65 3e bd 74 61 bd f7 20 60 3e 41 6c 71 3e
       0.2241627 -0.05504297 0.21887575 0.23576452
0000e0 5c 6e 93 3e 2a 07 bd be 78 93 76 3e 33 32 04 3e
       0.28795135 -0.36919528 0.24079692 0.12909774
0000f0 55 5e ae 3e 65 f0 38 be f2 b9 2d 3e e7 bd 28 3e
       0.34056345 -0.18060453 0.16965464 0.16478692
000100 43 e6 c2 be f3 60 cd 3e a4 b0 0e bf 1f 10 03 3f
       -0.380663 0.4011303 -0.5573828 0.51196474
000110 63 6c 0e 3f eb b0 a5 bd e7 aa ea 3e 07 f7 f7 be
       0.55634135 -0.08090385 0.45833513 -0.48430654
000120 3e b0 b5 be af af 02 3f 1d e8 44 3e 0d 68 89 bd
       -0.35486025 0.5104932 0.19229169 -0.06709299
000130 cb 23 91 bd c5 c1 3b bd b2 3e 54 bd a4 a8 fa 3d
       -0.07086905 -0.04583909 -0.051817603 0.12239197
000140 46 ab fc bd 6f 16 f0 bc 4e 5c 24 be 81 9f c4 be
       -0.12337355 -0.029307572 -0.16050836 -0.38402942
000150 75 37 1a 3e 79 3d 11 bf b6 27 f1 be ef 91 0d bf
       0.15060218 -0.56734425 -0.4710061 -0.553008
000160 2a d4 d2 3e 57 41 82 3e f0 48 96 bd 50 33 db 3c
       0.41177493 0.25440475 -0.073381305 0.026757866
000170 cb d6 f4 be 11 2b 60 be db 10 51 3e 22 5e e3 be
       -0.47820124 -0.21891429 0.20416586 -0.44407755
000180 91 d8 0b 3c b4 8f 0f be ee 99 f1 3d ff 9e 51 3e
       0.00853552 -0.14019662 0.11796938 0.20470808
000190 42 0a 17 3f 93 c1 a6 be e3 83 a4 3e 40 b0 0a 3e
       0.5900003 -0.3256956 0.32131872 0.13543797
0001a0 cb 20 01 be ef 0e 83 3e d3 3a d6 bd c7 3f 29 3c
       -0.12610166 0.2559733 -0.104604386 0.010330147
0001b0 5f 52 6e be c2 86 f1 bd 7d ce ad be 2c 79 0d bf
       -0.2327361 -0.11793281 -0.339466 -0.5526302
0001c0 78 8b 09 3f fb 08 fa be 73 98 e0 bc 04 b3 ff be
       0.5372844 -0.48834977 -0.027416443 -0.49941266
0001d0 3b c9 e4 3e 5d 18 12 be 14 6d c5 be 56 b6 c3 3e
       0.44684777 -0.14267106 -0.38559783 0.3822505
0001e0 41 36 48 3e 0b 05 97 be 0b 61 26 bd b9 25 55 be
       0.19551946 -0.29496035 -0.04061989 -0.20815171
0001f0 b5 c8 c5 3b ef 9f a9 3e 3f ae 08 3e 6b 76 04 bf
       0.006035889 0.33129832 0.1334772 -0.5174319
000200 3e ed 07 bf 9d 13 72 3e 12 73 8a 3e dc 4a 49 3d
       -0.5309638 0.23640294 0.27040917 0.049143657
000210 47 ad 2d 3e e6 a1 61 bd 11 ac 0f 3f ac 96 f0 be
       0.16960631 -0.05508604 0.5612193 -0.46989954
000220 1d 3b d6 3e 77 d0 12 bf ff 7d b6 be 8d 88 10 3f
       0.41841975 -0.5734934 -0.35643002 0.5645836
000230 e4 a2 91 bc 4e fe ae be ed d9 b2 3e 33 02 de bc
       -0.017777868 -0.34178394 0.3493189 -0.027100658
000240 49 71 a0 3d 34 1d 08 3f 37 0a f6 be 53 5b 39 be
       0.078341074 0.5316956 -0.48054668 -0.18101244
000250 cb 46 97 3e 5d 36 00 bf 6f 7a c9 bd 1e b4 d6 be
       0.29546198 -0.5008295 -0.098378055 -0.41934294
000260 39 f0 ab 3e 80 d1 ab 3e bd 17 ef 3d 4b b5 2e 3d
       0.33581713 0.33558273 0.116744496 0.042653363
000270 f9 56 64 be 28 b3 04 be 11 d0 5d bd f1 96 ac be
       -0.22298802 -0.12958968 -0.054153506 -0.3370891
000280 40 cc bd bd f8 63 07 3f ce 0e 0d bf bf c9 4a be
       -0.09267473 0.52886915 -0.55100715 -0.19803523
000290 d9 1b 1a bf 96 6d 19 bf bf ee 1b bf 96 fb ab be
       -0.6019874 -0.5993284 -0.6091117 -0.33590382
0002a0 e8 73 2e be e4 db 21 be 92 20 b9 3e 88 10 af bd
       -0.17036402 -0.15806538 0.36157662 -0.08548075
0002b0 c3 b5 7c be 58 10 64 bd b3 22 19 3f ce 87 05 bf
       -0.24678712 -0.05567965 0.5981857 -0.52160347
0002c0 9f 39 dc bd 80 65 1b bf 2f 6c d7 be d1 e5 bd bd
       -0.10753178 -0.6070175 -0.42074725 -0.092723496
0002d0 7c 71 b9 3d aa 81 fc 3e 51 cd 0a bf 4b 8e f2 be
       0.090548486 0.49317676 -0.5421954 -0.47374186
0002e0 76 85 b2 be 1b e2 95 be 97 4a 3d be 04 4d 4c be
       -0.34867448 -0.29274067 -0.18485485 -0.19951254
0002f0 ed 2f ae 3e f6 33 87 3e ab 20 9a 3d 03 31 17 bf
       0.3402094 0.2640683 0.07525762 -0.5905916
000300 b7 05 04 bf ba 2f 85 bd 67 58 31 3e 38 9d 07 bf
       -0.5157122 -0.06503244 0.17318879 -0.5297427
000310 a8 04 3a 3e 27 4b 06 bf 2f 9a 18 3e 0e f7 b8 3e
       0.18165839 -0.52458423 0.14902566 0.36125988
000320 79 e7 14 bf 94 76 f0 3e 95 1e c9 be c0 bc be bb
       -0.581657 0.46965468 -0.39281145 -0.0058208406
000330 ad 57 f3 3c 87 fc a7 be 2b fa 1f be d0 81 88 3e
       0.029704893 -0.3280985 -0.15622775 0.2666154
000340 1c 3f d7 be b7 a0 d6 3e c2 1f 53 be 3a 12 c6 bd
       -0.42040336 0.4191949 -0.20617583 -0.09671445
000350 98 71 f7 3e e8 e1 ab be 49 b0 e8 be 6c 1b 43 bd
       0.48328853 -0.3357079 -0.45446995 -0.047633573
000360 90 1b 1f be b7 76 87 3e bd b6 d9 3e e9 db da 3e
       -0.15537858 0.2645776 0.4252223 0.42745903
000370 b2 14 0c bf 07 63 03 bf f0 a4 8e 3e d8 a9 52 3e
       -0.5471908 -0.5132298 0.27860212 0.20572603
000380 86 a7 83 3d 6f 81 80 be 6f 52 87 3d c0 b3 f5 3b
       0.06428437 -0.2509875 0.0660752 0.0074982345
000390 d6 f1 ff bd c8 db bd be b0 d7 75 be 82 f5 6c be
       -0.124972984 -0.37081742 -0.2400806 -0.23140529
0003a0 5c 22 7b 3e 24 18 b5 be 46 d7 8e 3e 8a 91 59 be
       0.24524826 -0.3536998 0.27898616 -0.21246925
0003b0 f3 3c 57 3e 59 f9 01 bf 3f ae 30 bd 54 f4 4f 3e
       0.21019344 -0.507711 -0.043134924 0.20308048
0003c0 7c 59 09 bf 2c bd be 3d 56 81 9f 3e 46 f7 78 be
       -0.5365217 0.093134254 0.31153363 -0.24313077
0003d0 af 9b f3 bd bc 0a c7 be f2 70 c7 be 1c 78 0f 3e
       -0.11894929 -0.38875377 -0.38953358 0.14010662
0003e0 93 00 af be fc 90 52 be da f5 13 bf 47 bc c6 3e
       -0.34180126 -0.2056312 -0.57797015 0.3881552
0003f0 5e 97 17 bf 5a 34 66 3e 10 af 46 be de 3f b8 be
       -0.59215343 0.22480908 -0.19402719 -0.35986227

alpha_branch.2.bias f4 [16]
000000 0a d7 23 3c 0a d7 23 3c 0a d7 23 3c 0a d7 23 3c
       0.01 0.01 0.01 0.01
000010 0a d7 23 3c 0a d7 23 3c 0a d7 23 3c 0a d7 23 3c
       0.01 0.01 0.01 0.01
000020 0a d7 23 3c 0a d7 23 3c 0a d7 23 3c 0a d7 23 3c
       0.01 0.01 0.01 0.01
000030 0a d7 23 3c 0a d7 23 3c 0a d7 23 3c 0a d7 23 3c
       0.01 0.01 0.01 0.01

alpha_branch.4.weight f4 [1, 16]
000000 9c 34 72 3e 1c 58 32 3f 5c 3e 46 bf d7 87 9a be
       0.23652881 0.69665694 -0.774389 -0.30181763
000010 d6 57 17 3f 4f 22 32 3f ef a1 05 3d ad 67 c3 3d
       0.591184 0.695836 0.032625135 0.09541259
000020 9b de 2d bf e5 58 11 3f 30 0b f5 be 42 44 f2 3d
       -0.67917794 0.5677627 -0.47860098 0.118294254
000030 cf b6 bd be 21 f5 4e 3e cc 36 35 bf 6a 7c 72 be
       -0.37053534 0.20210697 -0.7078674 -0.23680273

color_branch.0.weight f4 [16, 32]
000000 9e e7 fb 3d 27 b5 f5 be 50 de c3 be 0b 4a 0a be
       0.12300037 -0.4798977 -0.38255548 -0.13504808
000010 7a 0c 76 3e ac 5d 22 3e 49 b0 8f be fc 1a f1 3e
       0.24028197 0.15856045 -0.28064182 0.470909
000020 49 19 eb 3e 32 0b f9 be 04 53 28 3e 6b 4c d5 3e
       0.4591773 -0.48641354 0.16437918 0.41659865
000030 7e 49 c3 3e 16 94 fe be df 6b 42 be 28 a5 02 be
       0.38142008 -0.49722356 -0.18986462 -0.12758315
000040 59 d6 7f 3e bb c9 b9 be b1 02 a2 be c1 62 6b 3e
       0.24984111 -0.3628672 -0.31642678 0.2298689
000050 a3 c6 8c bd 92 f7 8c bc af af a0 be 7c 5d c4 38
       -0.068738244 -0.017207894 -0.31384036 9.363421e-05
000060 4e b1 ba 3e 59 98 ad be 3c 2a 80 3e 49 d1 3c be
       0.36463398 -0.33905295 0.25032222 -0.18439211
000070 14 4d 43 be 75 a9 da 3e 4a da e4 be c2 d2 9c 3e
       -0.19072372 0.4270741 -0.4469779 0.30629545
000080 f2 56 e2 3e 05 b3 68 bc 30 39 89 3e a4 84 8a 3e
       0.4420696 -0.014202838 0.26801443 0.27054322
000090 29 07 28 3e 2d 5f e3 3e b2 ac 96 bd 54 3e c6 3e
       0.16408981 0.4440855 -0.07357158 0.38719428
0000a0 c5 d5 cd 3e ae 06 f9 3e fd 90 19 be 48 02 b1 be
       0.40202156 0.4863791 -0.14996715 -0.34572053
0000b0 68 53 07 be e3 a2 d1 be 87 47 b6 be 63 7d 53 be
       -0.1321541 -0.40944585 -0.35601446 -0.206533
0000c0 29 2e c4 be f5 a9 d7 be 85 94 f2 3c e0 22 16 3e
       -0.38316467 -0.42121854 0.029611835 0.14661741
0000d0 d5 d7 f0 3e c0 5e 3e 3d b0 51 07 3e 35 f2 6e 3e
       0.47039667 0.04647708 0.13214755 0.23334582
0000e0 06 77 e8 3e ea 22 8e be 9c cd 99 be 49 a7 62 3d
       0.45403308 -0.27761012 -0.3003968 0.055335317
0000f0 fd bf 79 bd ea 43 a7 3e 76 eb b5 3e 2f bf a0 3e
       -0.06097411 0.32669002 0.35531205 0.31395862
000100 e9 64 3a 3e 63 56 bd 3e af d3 49 3e 53 cf fb be
       0.18202557 0.3697997 0.19709657 -0.49181613
000110 53 e9 bf be af 1f c9 3e 68 6d d2 3e ae ef 0c 3e
       -0.374827 0.39281985 0.41099095 0.13763306
000120 ed 54 24 be 76 ca 8b bd 1d 38 6b bd c6 13 d6 3e
       -0.16048022 -0.06825726 -0.05742656 0.4181196
000130 93 65 16 be 2c 22 37 be 8a 1b ee be d2 ea fb 3e
       -0.14687185 -0.1788413 -0.46505386 0.4920259
000140 33 fb a6 3e 10 bb 13 3e 18 25 80 3e bb 40 9b bd
       0.32613525 0.14426827 0.250283 -0.07580706
000150 99 70 88 3e 8d ed dd 3e 63 aa dc be b5 07 07 3e
       0.26648405 0.433453 -0.43098745 0.13186534
000160 2f e5 c2 be 0e f3 2d be d1 0b 5f 3e 12 ba 21 3e
       -0.38065478 -0.1698725 0.21781851 0.15793636
000170 e0 9f a6 3e 99 ed ff bc 23 d0 fc be c4 ba 4a 3e
       0.3254385 -0.031241225 -0.49377546 0.19797808
000180 a5 cf c4 3e ae 97 eb 3e bb c6 cc 3e eb c6 5f 3e
       0.3843967 0.4601416 0.3999537 0.21853225
000190 e9 88 14 bd c7 d3 a3 3e 12 d8 e4 3c 05 2a a8 be
       -0.03626338 0.3199751 0.027935062 -0.32844558
0001a0 26 2a 66 3e 3e 2a 45 3e 39 c3 bb be 29 b1 fd be
       0.22477016 0.19254395 -0.3667238 -0.49549225
0001b0 42 40 ad be 8c 8a 9d 3d 42 ea a2 3e 9f 5a 3d 3e
       -0.33838087 0.07692441 0.3181935 0.184916
0001c0 1e ee 94 3e 00 f6 ef 3e af da 08 3e e0 65 28 3e
       0.2908792 0.4686737 0.13364671 0.16445112
0001d0 4f 34 04 bd 69 fb 16 be 46 b8 10 bd 75 19 6b be
       -0.032276448 -0.14744343 -0.035331987 -0.2295893
0001e0 b8 48 7b 3e ce 2f 24 be 0b 70 e1 be e8 82 a8 be
       0.24539459 -0.16033861 -0.44030795 -0.32912374
0001f0 49 10 aa 3e fe 3e df be 90 b0 56 3e 1c 2f b7 3e
       0.3321555 -0.43602747 0.20965791 0.3577813
000200 1c 3f 8c 3d ec 44 df 3e 3d 74 9f 3d 7b 34 d7 3e
       0.06847975 0.4360727 0.077858426 0.42032227
000210 ff ff b7 3e b0 3c a1 be 15 21 55 3d 17 7b c3 be
       0.35937497 -0.31491613 0.052033503 -0.38179848
000220 7e 67 87 3e cc 2f 83 3e 63 d1 92 be 33 0a d1 3d
       0.26446146 0.25622404 -0.28675374 0.102070235
000230 9c 20 bd be e7 60 9b be 7d be 62 be 10 1c fa 3e
       -0.3693894 -0.30347368 -0.22142978 0.48849535
000240 cc 09 fa bc 57 b6 49 be 36 4e 86 be 07 60 b7 3e
       -0.03052225 -0.19698463 -0.26231545 0.3581545
000250 71 24 a0 be f4 ca d1 be 19 ff cb 3e f0 21 cb 3e
       -0.31277803 -0.40975153 0.39843062 0.3967433
000260 01 c0 82 be 70 8f 90 be cf b9 97 3e f7 6b 8e be
       -0.25537112 -0.28234434 0.29633948 -0.27816746
000270 8f 9f 6a bd 91 14 ad 3e e4 61 76 3e e9 d8 62 3e
       -0.057281073 0.33804753 0.2406078 0.22153057
000280 5d 7b e6 3d 5e 3a aa be e0 03 31 3e df ff 5b be
       0.112539984 -0.33247656 0.17286634 -0.21484326
000290 5f 31 95 be 7f 56 26 3e 43 00 bd 3e 52 25 ff 3e
       -0.2913923 0.16243933 0.36914262 0.4983316
0002a0 df eb d0 be 57 76 9f 3e 18 4e f5 be bb 8b c8 be
       -0.40804955 0.31144974 -0.47911143 -0.39169106
0002b0 dc 9d 3a be 20 58 5a be 2b bb b3 3e 7d 6e b4 be
       -0.18224281 -0.2132268 0.35103735 -0.35240546
0002c0 c1 41 0d 3d f0 ed 56 be 37 3e a8 3e 66 8f ae be
       0.034486536 -0.20989203 0.32859966 -0.3409378
0002d0 7f c5 c7 be 3d 0b 28 3e 90 11 74 be bb 28 0a bc
       -0.39017865 0.16410537 -0.23834825 -0.008432562
0002e0 67 f9 02 3e 84 08 dd 3d 12 60 78 bc cc cd 50 3e
       0.12790452 0.1079264 -0.015159624 0.20391005
0002f0 a0 9a db bd 23 db 5b 3e 54 83 e5 be 85 ea cd bd
       -0.10722852 0.21470313 -0.44826758 -0.10054497
000300 45 a0 e4 3e 21 2c 2e 3e 9f 98 91 3e 67 3a a6 be
       0.44653526 0.17009021 0.28436753 -0.32466432
000310 a4 fe e8 3e cb 75 2d be a8 9b cf 3e 47 fc c8 be
       0.45506775 -0.16939466 0.40548444 -0.39254972
000320 22 a5 e9 3d f3 f2 9b 3e 9f a2 12 bd 6a 70 62 be
       0.1140845 0.30458793 -0.03579962 -0.22113195
000330 c5 4e 07 be 63 4e 79 be 76 68 bc bd ed 22 f9 be
       -0.13213642 -0.24346308 -0.09199612 -0.4865946
000340 29 e2 88 be f7 31 dd be 3f cc be be 0c f5 7e 3e
       -0.26735047 -0.43202183 -0.37265202 0.24898165
000350 1f f1 c4 3e 65 54 d0 be a9 b2 94 bd b6 cf 8b 3d
       0.3846521 -0.40689388 -0.07260639 0.06826727
000360 f0 70 cc be 1b 6f a7 3c 1f 85 06 be 53 49 cf be
       -0.39929914 0.020438721 -0.13136719 -0.4048563
000370 0e 5c 7d be e9 f8 37 be 5a b3 e9 be 12 80 8f bd
       -0.24742147 -0.17966045 -0.45644647 -0.07006849
000380 63 40 ff bd 0a ba ac 3d 2b 60 3c be 2d 71 bd 3e
       -0.12463453 0.08433922 -0.1839606 0.3700041
000390 e6 f0 c6 3e c1 cc 8d be 96 7c d8 be 9b 9c b8 be
       0.38855666 -0.27695277 -0.42282552 -0.3605698
0003a0 de 4e ed 3e 6f 17 89 bd a7 9f d4 be 69 93 bd 3e
       0.46349233 -0.06693923 -0.41528055 0.37026528
0003b0 9a 0c 55 be 44 09 32 be d9 1d 4f be b1 4e 45 be
       -0.20805588 -0.17386347 -0.2022623 -0.192683
0003c0 6c 93 a3 be 69 0b be 3e a6 2d 8b 3e c6 ef ea 3e
       -0.3194841 0.3711808 0.27183264 0.45886058
0003d0 34 78 12 3e a4 35 0b be 6f a5 64 be 13 96 aa 3e
       0.14303666 -0.13594681 -0.22328733 0.33317623
0003e0 b0 5b 4f be 41 e5 26 be 9f 71 d6 be ca 03 60 be
       -0.2024982 -0.16298391 -0.4188356 -0.21876445
0003f0 0b 43 c2 3d 7c 5e f3 3e d1 25 e5 be c8 4b 6a 3e
       0.09485444 0.47533023 -0.44755414 0.22880471

color_branch.0.bias f4 [16]
000000 0a d7 23 3c 0a d7 23 3c 0a d7 23 3c 0a d7 23 3c
       0.01 0.01 0.01 0.01
000010 0a d7 23 3c 0a d7 23 3c 0a d7 23 3c 0a d7 23 3c
       0.01 0.01 0.01 0.01
000020 0a d7 23 3c 0a d7 23 3c 0a d7 23 3c 0a d7 23 3c
       0.01 0.01 0.01 0.01
000030 0a d7 23 3c 0a d7 23 3c 0a d7 23 3c 0a d7 23 3c
       0.01 0.01 0.01 0.01
